__________________________________________________________________________________________________
Layer (type)                    Output Shape         Param #     Connected to                     
==================================================================================================
input_1 (InputLayer)            (None, 256, 256, 3)  0                                            
__________________________________________________________________________________________________
conv2d_1 (Conv2D)               (None, 256, 256, 32) 896         input_1[0][0]                    
__________________________________________________________________________________________________
conv2d_2 (Conv2D)               (None, 256, 256, 32) 9248        conv2d_1[0][0]                   
__________________________________________________________________________________________________
batch_normalization_1 (BatchNor (None, 256, 256, 32) 128         conv2d_2[0][0]                   
__________________________________________________________________________________________________
max_pooling2d_1 (MaxPooling2D)  (None, 128, 128, 32) 0           batch_normalization_1[0][0]      
__________________________________________________________________________________________________
conv2d_3 (Conv2D)               (None, 128, 128, 64) 18496       max_pooling2d_1[0][0]            
__________________________________________________________________________________________________
conv2d_4 (Conv2D)               (None, 128, 128, 64) 36928       conv2d_3[0][0]                   
__________________________________________________________________________________________________
batch_normalization_2 (BatchNor (None, 128, 128, 64) 256         conv2d_4[0][0]                   
__________________________________________________________________________________________________
max_pooling2d_2 (MaxPooling2D)  (None, 64, 64, 64)   0           batch_normalization_2[0][0]      
__________________________________________________________________________________________________
conv2d_5 (Conv2D)               (None, 64, 64, 128)  73856       max_pooling2d_2[0][0]            
__________________________________________________________________________________________________
conv2d_6 (Conv2D)               (None, 64, 64, 128)  147584      conv2d_5[0][0]                   
__________________________________________________________________________________________________
batch_normalization_3 (BatchNor (None, 64, 64, 128)  512         conv2d_6[0][0]                   
__________________________________________________________________________________________________
max_pooling2d_3 (MaxPooling2D)  (None, 32, 32, 128)  0           batch_normalization_3[0][0]      
__________________________________________________________________________________________________
conv2d_7 (Conv2D)               (None, 32, 32, 256)  295168      max_pooling2d_3[0][0]            
__________________________________________________________________________________________________
conv2d_8 (Conv2D)               (None, 32, 32, 256)  590080      conv2d_7[0][0]                   
__________________________________________________________________________________________________
batch_normalization_4 (BatchNor (None, 32, 32, 256)  1024        conv2d_8[0][0]                   
__________________________________________________________________________________________________
conv2d_transpose_1 (Conv2DTrans (None, 64, 64, 128)  131200      batch_normalization_4[0][0]      
__________________________________________________________________________________________________
concatenate_1 (Concatenate)     (None, 64, 64, 256)  0           conv2d_transpose_1[0][0]         
                                                                 batch_normalization_3[0][0]      
__________________________________________________________________________________________________
conv2d_9 (Conv2D)               (None, 64, 64, 128)  295040      concatenate_1[0][0]              
__________________________________________________________________________________________________
conv2d_10 (Conv2D)              (None, 64, 64, 128)  147584      conv2d_9[0][0]                   
__________________________________________________________________________________________________
batch_normalization_5 (BatchNor (None, 64, 64, 128)  512         conv2d_10[0][0]                  
__________________________________________________________________________________________________
conv2d_transpose_2 (Conv2DTrans (None, 128, 128, 64) 32832       batch_normalization_5[0][0]      
__________________________________________________________________________________________________
concatenate_2 (Concatenate)     (None, 128, 128, 128 0           conv2d_transpose_2[0][0]         
                                                                 batch_normalization_2[0][0]      
__________________________________________________________________________________________________
conv2d_11 (Conv2D)              (None, 128, 128, 64) 73792       concatenate_2[0][0]              
__________________________________________________________________________________________________
conv2d_12 (Conv2D)              (None, 128, 128, 64) 36928       conv2d_11[0][0]                  
__________________________________________________________________________________________________
batch_normalization_6 (BatchNor (None, 128, 128, 64) 256         conv2d_12[0][0]                  
__________________________________________________________________________________________________
conv2d_transpose_3 (Conv2DTrans (None, 256, 256, 32) 8224        batch_normalization_6[0][0]      
__________________________________________________________________________________________________
concatenate_3 (Concatenate)     (None, 256, 256, 64) 0           conv2d_transpose_3[0][0]         
                                                                 batch_normalization_1[0][0]      
__________________________________________________________________________________________________
conv2d_13 (Conv2D)              (None, 256, 256, 32) 18464       concatenate_3[0][0]              
__________________________________________________________________________________________________
conv2d_14 (Conv2D)              (None, 256, 256, 32) 9248        conv2d_13[0][0]                  
__________________________________________________________________________________________________
batch_normalization_7 (BatchNor (None, 256, 256, 32) 128         conv2d_14[0][0]                  
__________________________________________________________________________________________________
conv2d_15 (Conv2D)              (None, 256, 256, 1)  33          batch_normalization_7[0][0]      
==================================================================================================
Total params: 1,928,417
Trainable params: 1,927,009
Non-trainable params: 1,408
__________________________________________________________________________________________________
Epoch 1/50

Epoch 00001: val_soft_sorensen_dice improved from -inf to 0.05193, saving model to /home/ubuntu/data/segmentation/checkpoints/weights-01-0.0519.hdf5
…
